models/best.pth (torch, 353797 bytes, 354 tensors)

first.shortcut.0.weight f4 [4, 1, 1, 1]
0	0x3d32f759	0.04369292
1	0x3fa88a62	1.3167231
2	0xbd86e12a	-0.065859154
3	0x3cf7d853	0.030254519

first.shortcut.1.weight f4 [4]
0	0x3fa16232	1.2608092
1	0x3ee6baca	0.45064384
2	0x3f8a7b10	1.0818806
3	0x3f9afedf	1.210903

first.shortcut.1.bias f4 [4]
0	0xbec4596e	-0.3834948
1	0x3f3aad3a	0.7292057
2	0x3e9128c8	0.28351426
3	0xbf8da6de	-1.1066549

first.shortcut.1.running_mean f4 [4]
0	0x3b8f2123	0.004367964
1	0x3e06ca9d	0.13163228
2	0xbbd7bdde	-0.006583913
3	0x3b46373a	0.003024532

first.shortcut.1.running_var f4 [4]
0	0x3752fa50	1.2575256e-05
1	0x3c3b1ce2	0.01142046
2	0x37efabfa	2.8571103e-05
3	0x36ca5048	6.029415e-06

first.block.0.weight f4 [4, 1, 3, 3]
0	0xc04e9ce4	-3.2283258
1	0xbd563c63	-0.052303683
2	0x3f1daaad	0.61588556
3	0xc032c52c	-2.7932844
4	0x3e68cf62	0.2273536
5	0x3eb3a540	0.35087013
6	0xc013d8e7	-2.3101137
7	0x3e6fbc8d	0.2341177
8	0x3f3884f3	0.72077864
9	0xbe085104	-0.13312155
10	0xbdd16a36	-0.10225336
11	0x3e32fd14	0.17479354
12	0xbe5ac684	-0.2136479
13	0xbe570beb	-0.2100064
14	0xbe772c65	-0.24138029
15	0x3e13763e	0.14400575
16	0xbe175d98	-0.14781797
17	0xbe0b9424	-0.1363073
18	0xbf6d0a16	-0.92593515
19	0xbecac30b	-0.3960193
20	0x3db98ced	0.090600826
21	0x3ee34a11	0.44392446
22	0x3f8bafcb	1.0913023
23	0x3f986c87	1.190812
24	0xbe286a1e	-0.1644673
25	0x3f8138c0	1.0095444
26	0x3f62bf22	0.88572896
27	0xbf70be0f	-0.94040006
28	0xbc9f2bd8	-0.019430086
29	0x3e160127	0.14648877
30	0xbf1f106a	-0.6213442
31	0xbe8ee436	-0.27908486
32	0x3d77203c	0.060333475
33	0xbdd78469	-0.10523302
34	0x3da099dc	0.07841846
35	0xbd805a9a	-0.06267281

first.block.0.bias f4 [4]
0	0xbee3eb58	-0.4451549
1	0xbda14af0	-0.07875621
2	0xbe49040c	-0.1963045
3	0x3ee5a92c	0.4485563

first.block.2.weight f4 [4]
0	0x3f660991	0.8985835
1	0x3f800000	1.0
2	0x3f079c18	0.52972555
3	0x3fc09cd1	1.5047857

first.block.2.bias f4 [4]
0	0x3e6943ba	0.22779742
1	0xbf618386	-0.88091314
2	0xbe5ab303	-0.2135735
3	0xbf29c830	-0.66321087

first.block.2.running_mean f4 [4]
0	0x39573c74	0.00020526518
1	0x00000000	0.0
2	0x3e14b9e5	0.14524038
3	0x3e926414	0.2859198

first.block.2.running_var f4 [4]
0	0x3906a18d	0.00012839418
1	0x00000004	6e-45
2	0x3d82a8d6	0.06379859
3	0x3c1ee29c	0.009697583

first.block.3.weight f4 [4, 4, 3, 3]
0	0x3f1c6306	0.610886
1	0x3efdbdcd	0.4955887
2	0x3f2a5793	0.6653988
3	0x3f01f900	0.5077057
4	0xbee41f44	-0.44555104
5	0xbec647a5	-0.38726535
6	0x3e9d9594	0.30778182
7	0xbe54b9a8	-0.20773947
8	0xbf3add31	-0.7299376
9	0xbf3189e2	-0.6935102
10	0xbf8698ab	-1.051534
11	0xbf1f5f29	-0.6225458
12	0x3ca33d67	0.01992674
13	0x3deadd85	0.11468033
14	0xbf421db7	-0.7582659
15	0x3ecfbf3d	0.4057559
16	0x3ecc10a2	0.3985644
17	0xbf265887	-0.6497883
18	0xbf745382	-0.9543992
19	0xbf41facc	-0.7577331
20	0xbe5f4ab2	-0.21805838
21	0xbf60167a	-0.87534297
22	0xbf83ba98	-1.0291319
23	0xbf3d3e67	-0.73923343
24	0xbe0910ed	-0.13385363
25	0x3e641f3e	0.22277543
26	0xbda2e6e5	-0.07954196
27	0x3f7f6da3	0.9977667
28	0xbea26dd4	-0.31724417
29	0xbed80d70	-0.42197752
30	0x3f39e857	0.7262015
31	0xbe60e0df	-0.21960782
32	0xbec6f2e4	-0.38857186
33	0xbe9bed05	-0.3045427
34	0xbe28f61b	-0.16500132
35	0x3d80eb9f	0.06294941
36	0x3ef30c47	0.47470304
37	0xbe69bcdb	-0.22825949
38	0xbf3fe6c3	-0.7496149
39	0xbf8ac9e2	-1.084286
40	0x3c9100f8	0.017700657
41	0xbf104fbe	-0.56371677
42	0xbfc23524	-1.5172467
43	0xbcacba94	-0.021085061
44	0xbe77c725	-0.24197061
45	0xbfef3128	-1.8686876
46	0xc02367f5	-2.55322
47	0xbebb04a2	-0.36526972
48	0xc0157bd1	-2.3356822
49	0xc036a81b	-2.8540103
50	0xbe437c07	-0.19090281
51	0xc0010428	-2.0158787
52	0xc021be96	-2.5272574
53	0x3dc08583	0.09400465
54	0x3dc2c140	0.09509516
55	0xbd6c7409	-0.057727847
56	0xbd9fab41	-0.07796336
57	0xbe490592	-0.19631031
58	0xbf1c1b00	-0.609787
59	0xbea6c37d	-0.3257102
60	0x3e3aa7a4	0.18228012
61	0x3d6f862c	0.058477566
62	0x3dcbec1f	0.09957146
63	0xbe9772df	-0.29579827
64	0xbfa9e5bc	-1.3273234
65	0x3e21e49c	0.15809864
66	0xbf1bd61f	-0.608736
67	0xbfdaf400	-1.7105713
68	0x3e30c296	0.17261729
69	0x3e9d721f	0.3075113
70	0xbf6c5b61	-0.92326933
71	0xbe31f616	-0.1737903
72	0x3f3fe9c1	0.74966055
73	0xbeb4efb6	-0.35339135
74	0xbd9f014e	-0.07763921
75	0x3e976910	0.29572344
76	0x3ecd33c9	0.4007857
77	0xbf5ad051	-0.85474116
78	0x3ee068b8	0.43829894
79	0xbee11b3a	-0.43966085
80	0xbf2e1579	-0.68001515
81	0x3e3bdc27	0.183457
82	0x3e11fe8a	0.14257255
83	0xbde9be66	-0.11413269
84	0x3dfed36d	0.1244267
85	0x3eba823b	0.36427483
86	0x3de496bf	0.11161565
87	0x3e5268db	0.20547812
88	0x3d2fccc0	0.042919874
89	0xbedd14b9	-0.43179873
90	0x3d35fb30	0.044429004
91	0x3f1bb65b	0.6082513
92	0x3f1993a9	0.59990937
93	0x3e15bdb0	0.14623141
94	0x3d4e39a2	0.05034793
95	0x3f5456f0	0.82945156
96	0x3f5cc1d3	0.8623325
97	0x3e5b60a6	0.21423587
98	0x3cbc9b03	0.023023134
99	0x3e4a57cd	0.19760056
100	0xbf08f5b3	-0.5349991
101	0xbf1307be	-0.5743369
102	0xbeeda9a4	-0.46418488
103	0xbf817175	-1.0112749
104	0xbf47748a	-0.779122
105	0x3ea179a3	0.31538114
106	0xbf8bdffa	-1.0927727
107	0xbd55c0f9	-0.052185986
108	0xbe232284	-0.15931135
109	0xbdfdc9c7	-0.123920016
110	0xbf084392	-0.53228104
111	0x3da11286	0.07864861
112	0x3cfb51e0	0.03067869
113	0x3e019e63	0.12658076
114	0xbe76d1a8	-0.24103415
115	0xbd8a9eac	-0.067685455
116	0xbdc8b422	-0.097999826
117	0x3f9c38b0	1.22048
118	0xbeca46ac	-0.39507043
119	0x3f7a0ee6	0.97678983
120	0x3f27a31e	0.6548327
121	0xbfc5767e	-1.5426786
122	0xbca5511e	-0.020180281
123	0x3f11f714	0.57017636
124	0xbf165de7	-0.58737034
125	0x3ea65a78	0.32490897
126	0x3fc7757b	1.5582727
127	0x3f2284a9	0.63483673
128	0xbed38ce4	-0.4131843
129	0xbf367949	-0.71278816
130	0xbe2f0593	-0.1709197
131	0xbf1fc329	-0.62407166
132	0xbf4826f3	-0.7818443
133	0x3e27c4f9	0.16383733
134	0xbe11486b	-0.14187782
135	0x3e05e94d	0.13077278
136	0x3d8108de	0.063005194
137	0x3f6df585	0.9295276
138	0xbe9a5183	-0.30140314
139	0xbf6b4367	-0.9189972
140	0xbf5ee512	-0.87068284
141	0xbc88210a	-0.016617317
142	0x3f24d3c8	0.6438565
143	0x3eaf2e22	0.34214884

first.block.3.bias f4 [4]
0	0x3dc92fc6	0.09823565
1	0x40268b54	2.602254
2	0xbed6176a	-0.4181474
3	0x3f8ae26c	1.0850348

first.block.5.weight f4 [4]
0	0x3ef9a5c4	0.48759282
1	0x3f94dd00	1.1629944
2	0x3f65cc26	0.8976463
3	0x3e44cf5a	0.19219723

first.block.5.bias f4 [4]
0	0xbec4596e	-0.3834948
1	0x3f3aad3a	0.7292057
2	0x3e9128c8	0.28351426
3	0xbf8da6de	-1.1066549

first.block.5.running_mean f4 [4]
0	0x407e325e	3.9718242
1	0x418d2188	17.641373
2	0x403f2875	2.9868443
3	0x3e7307cf	0.23733447

first.block.5.running_var f4 [4]
0	0x4062c792	3.5434308
1	0x421cd038	39.20334
2	0x420ee159	35.720066
3	0x3e6e4997	0.2327026

down_path.0.block1.shortcut.0.weight f4 [4, 4, 1, 1]
0	0x3ec0660c	0.37577856
1	0xbefe2101	-0.49634555
2	0xbf351f90	-0.70751286
3	0xc015156a	-2.329432
4	0xbdc1d340	-0.09464121
5	0xbf835f4f	-1.0263461
6	0x3f11ec76	0.57001436
7	0xbe653896	-0.22384867
8	0xbfb28c30	-1.3949032
9	0x3f798767	0.9747223
10	0xbdc29275	-0.09500591
11	0x3cf77ed3	0.030211842
12	0xbf1d9dd4	-0.6156895
13	0x3dea5d09	0.11443526
14	0xbf98cbd3	-1.1937202
15	0x3f8ab7a9	1.0837299

down_path.0.block1.shortcut.1.weight f4 [4]
0	0x3f1a45ab	0.60262555
1	0x4016abd2	2.354237
2	0x3f9f33a3	1.2437633
3	0x3f615ad1	0.880292

down_path.0.block1.shortcut.1.bias f4 [4]
0	0xbef0c9c7	-0.47028944
1	0xbf84041e	-1.0313756
2	0x3cb9cf67	0.022681905
3	0xbf8a7219	-1.081607

down_path.0.block1.shortcut.1.running_mean f4 [4]
0	0x406f84c8	3.7424793
1	0xbf1b079d	-0.6055849
2	0x4017b944	2.3706827
3	0xc01bedac	-2.4363813

down_path.0.block1.shortcut.1.running_var f4 [4]
0	0x40a86b17	5.2630725
1	0x4057d623	3.3724449
2	0x3faaf600	1.3356323
3	0x3f665aa7	0.89982074

down_path.0.block1.conv.0.weight f4 [4, 4, 3, 3]
0	0x3f221183	0.6330797
1	0x3fc4d053	1.5376076
2	0x3e85eb21	0.26155952
3	0xbd36deff	-0.04464626
4	0x3f55b810	0.8348398
5	0x3ecf736f	0.40517756
6	0xbe3cb715	-0.18429215
7	0x3e7b69aa	0.24552026
8	0x3ee41f87	0.44555303
9	0x3ef6a02a	0.4816907
10	0x3e41d3bb	0.18928425
11	0x3fa76cab	1.3080038
12	0xbedc184e	-0.42987293
13	0xbe9690cb	-0.29407343
14	0xbdf0d329	-0.117590256
15	0x3d6d0544	0.05786635
16	0xbe99d704	-0.30046856
17	0x3f19f8cb	0.6014525
18	0x3e4d1337	0.20026861
19	0x3e2e8709	0.170437
20	0x3f07a311	0.52983195
21	0xbf7b5653	-0.98178595
22	0xbecf91ed	-0.4054102
23	0x3da17f78	0.07885641
24	0xbf15ff74	-0.58592916
25	0xbf01d722	-0.5071889
26	0x3f39e2a3	0.72611445
27	0xbf23660f	-0.63827604
28	0xbeef34c8	-0.46719956
29	0x3ecbd699	0.39812163
30	0xbf8d2638	-1.1027288
31	0xbfae6499	-1.362445
32	0xbf2d30b2	-0.6765243
33	0xbf2611fd	-0.648712
34	0xbcd79d0c	-0.026320003
35	0x3f10337c	0.5632856
36	0x3e6b5f22	0.22985509
37	0xbeae54d2	-0.34049088
38	0x3f6bd666	0.9212402
39	0x3e323c32	0.17405775
40	0xbf734c2a	-0.9503809
41	0x3f698812	0.9122325
42	0xbf38a3a6	-0.7212471
43	0xbf15e2b5	-0.5854905
44	0x3f951a41	1.1648637
45	0xbb11f007	-0.0022268312
46	0x3f307130	0.6892271
47	0xbf9bc4d7	-1.2169446
48	0x3ebf39c9	0.37348774
49	0x3f2346a3	0.6377966
50	0xbf0cd405	-0.55011016
51	0xbe303045	-0.17205913
52	0x3e43dd41	0.1912737
53	0xbeefa818	-0.46807933
54	0xbf88b937	-1.0681523
55	0xbfbb494a	-1.4631741
56	0x3fc237a0	1.5173225
57	0xbecc69ac	-0.3992437
58	0xbe718d0a	-0.23588958
59	0x3f9c10ea	1.2192662
60	0x3da0a6f7	0.07844346
61	0xbdf272a1	-0.1183827
62	0x3f5a00ab	0.8515727
63	0x3e1e869c	0.15481037
64	0x3f45ec3a	0.7731358
65	0x3bd56ddd	0.006513341
66	0x3da0fee8	0.078611195
67	0x3e6ba24c	0.2301113
68	0xbdc62c17	-0.09676378
69	0xbcf66ddd	-0.030081684
70	0xbe84659a	-0.25858766
71	0x3ebccc9d	0.36874858
72	0xbe991847	-0.29901335
73	0xbe568302	-0.20948413
74	0xbee4fc48	-0.44723725
75	0xbf53c52a	-0.82722723
76	0xbe901a3a	-0.2814501
77	0xbe83a2ee	-0.25710243
78	0x3e1e4485	0.15455826
79	0x3e02b597	0.12764584
80	0x3f5b0f9b	0.8557069
81	0xbf02f37c	-0.5115278
82	0xbdd75428	-0.105140984
83	0x3f598497	0.8496794
84	0x3d01379e	0.03154718
85	0xbf6a731c	-0.9158189
86	0xbf12ee0e	-0.5739449
87	0x3f47e9cf	0.7809114
88	0xbd873a8c	-0.06602964
89	0xbfb46212	-1.4092429
90	0x3ed03457	0.40664932
91	0x3eb09df1	0.344955
92	0xbbed9e9f	-0.007251575
93	0x3efa71e5	0.4891502
94	0x3f792cea	0.9733416
95	0xbe0eafd4	-0.1393426
96	0xbe2118a2	-0.15732053
97	0x3d0b9eea	0.0340871
98	0xbe8e4cc2	-0.27792937
99	0xbf34c170	-0.7060766
100	0xbf6ac597	-0.9170775
101	0x3fc7de38	1.5614691
102	0x3f860e55	1.0473124
103	0xbed60f38	-0.41808486
104	0x3ebb23f6	0.36550874
105	0x3faa05c5	1.3283011
106	0xbea23933	-0.31684265
107	0xbed5296f	-0.41633174
108	0x3f9bf56e	1.2184274
109	0xbe9a14fc	-0.30094135
110	0xbfc6f1a2	-1.554249
111	0x3ed584e1	0.4170294
112	0xbf592ce3	-0.84834117
113	0xbf5c4dbf	-0.8605613
114	0xbf2195d3	-0.6311924
115	0xbea0eef1	-0.31432298
116	0xbf43e597	-0.765222
117	0x3f823a9c	1.0174136
118	0x3f0edcdf	0.5580577
119	0xbf2b9a05	-0.6703189
120	0x3df167aa	0.117873505
121	0x3ed45a11	0.41474965
122	0xbf2c086b	-0.67200345
123	0xbf777f95	-0.9667905
124	0xbe976c11	-0.29574636
125	0x3ef7d1fb	0.4840239
126	0x3c662085	0.014045839
127	0x3ef2faee	0.4745707
128	0x3f137392	0.5759822
129	0xbefb7640	-0.49113655
130	0xbf7194fb	-0.9436795
131	0xbf0dd936	-0.5540956
132	0xbcd63c32	-0.02615175
133	0xbebaf696	-0.36516255
134	0x3f44bc33	0.7684967
135	0x3f3c7b6d	0.7362583
136	0x3f0524d4	0.5200932
137	0x3e72d965	0.23715742
138	0xbf0686d5	-0.5254949
139	0xbe93f5e6	-0.28898543
140	0x3d08cf39	0.033400748
141	0xbf2c1410	-0.6721811
142	0xbe96a2cb	-0.29421076
143	0x3f21842e	0.63092315

down_path.0.block1.conv.0.bias f4 [4]
0	0xbe9d6117	-0.30738136
1	0xbeb54fa4	-0.35412323
2	0xbe885c04	-0.26632702
3	0x3f5531ab	0.8327891

down_path.0.block1.conv.1.weight f4 [4]
0	0x3f6d52cd	0.9270447
1	0x3f8690fd	1.0512997
2	0x3f8dbbf8	1.1072989
3	0x3f88e3cc	1.0694518

down_path.0.block1.conv.1.bias f4 [4]
0	0x3e9937a4	0.29925263
1	0x3d313f30	0.04327315
2	0xbf02372b	-0.5086543
3	0x3f2058dd	0.62635595

down_path.0.block1.conv.1.running_mean f4 [4]
0	0x40e10aef	7.0325847
1	0xc086676f	-4.200126
2	0xc0923c50	-4.5698624
3	0x401b62be	2.4279017

down_path.0.block1.conv.1.running_var f4 [4]
0	0x4107396d	8.45152
1	0x40c1957b	6.049497
2	0x411bbbc8	9.733345
3	0x41243cbf	10.264831

down_path.0.block1.conv.3.weight f4 [4, 4, 3, 3]
0	0x3f8210dc	1.0161395
1	0x3fb8b770	1.4430981
2	0xbe4ad0fd	-0.19806285
3	0xbf67bd37	-0.90523094
4	0xbe28a66d	-0.16469736
5	0xbedd99b2	-0.43281323
6	0x3ab7fb6a	0.0014036719
7	0xbd9d805e	-0.076905
8	0xbf3a3098	-0.727304
9	0xbf57df9f	-0.84325594
10	0xbf4a283d	-0.7896765
11	0xbe7342bc	-0.23755926
12	0xbf75f6c4	-0.9607966
13	0xbaac96ff	-0.0013167559
14	0xbf285f17	-0.65770096
15	0xbe8ac82d	-0.27105847
16	0x3e9a381f	0.30120942
17	0xbe23bc62	-0.15989831
18	0x3ebe9144	0.37220204
19	0xbe6ee40a	-0.23329177
20	0xbee25374	-0.44204295
21	0x3a0b1e42	0.0005306938
22	0x3f14dfd9	0.58154064
23	0x3f0bc7a4	0.546015
24	0xbf0eb4b4	-0.5574448
25	0x3f160ee9	0.586165
26	0xbc0f52a8	-0.008747734
27	0x3d5292f8	0.05140969
28	0xbe98db76	-0.29854935
29	0x3e00bfce	0.12573168
30	0xbf8a982d	-1.082769
31	0xbf8aa1c9	-1.0830623
32	0xbf2f9ab5	-0.6859544
33	0xbfb75774	-1.4323564
34	0xbf8f03d9	-1.1173049
35	0xbe84d09b	-0.25940403
36	0x3f14c684	0.5811541
37	0x3e9e43a9	0.30910996
38	0x3efdb1e1	0.49549773
39	0xbf09b59b	-0.5379273
40	0xbe89b08a	-0.268925
41	0xbe9a8ec6	-0.30187052
42	0x3e9e779f	0.3095064
43	0x3e9d4fc2	0.30724913
44	0x3e389e2b	0.18029086
45	0xbf37d00b	-0.71801823
46	0x3f2811ad	0.6565197
47	0xbedf4b64	-0.43612206
48	0xbf06ffbb	-0.52733964
49	0x3ef1cd17	0.47226784
50	0x3edc7721	0.43059638
51	0xbe1c4999	-0.1526245
52	0x3ee1d108	0.4410479
53	0x3ed4e35d	0.41579714
54	0x3f2e3dff	0.6806335
55	0x3ec96ce0	0.39340878
56	0x3d792d6b	0.06083433
57	0x3f850f9a	1.0395386
58	0x3f2d8aa8	0.677897
59	0x3f23df86	0.64012945
60	0x3f251fbd	0.64501554
61	0x3f01a593	0.5064327
62	0x3ee4e1aa	0.44703418
63	0xbe0ed03e	-0.13946626
64	0x3f885fb8	1.0654211
65	0xbcd527f6	-0.026020031
66	0x3f27ac21	0.6549702
67	0x3f53e3c0	0.82769394
68	0x3eaee879	0.34161738
69	0xbe3f2269	-0.1866547
70	0xbf25d81e	-0.64782894
71	0x3dedbbd8	0.11608094
72	0xbf9486be	-1.160362
73	0xbf5a5e28	-0.8529992
74	0xbd64dbb0	-0.055873573
75	0xbf0b7491	-0.5447474
76	0xbdb27937	-0.08714526
77	0xbf90face	-1.132654
78	0xbe17b950	-0.14816785
79	0x3f577e63	0.84177226
80	0xbf8c1904	-1.0945134
81	0x3fb93cee	1.4471719
82	0x3eaa64c8	0.33280015
83	0xbf92b004	-1.1459966
84	0xbe894e99	-0.26817778
85	0xbcdec8ef	-0.027195422
86	0xbf0ffc70	-0.56244564
87	0xbef3e8f8	-0.4763868
88	0x3dc79549	0.09745271
89	0xbf597e24	-0.849581
90	0xbf2a487b	-0.66516846
91	0xbed4ad30	-0.41538382
92	0x3ea291a9	0.31751755
93	0xbe3c3811	-0.18380763
94	0xbda485fe	-0.080333695
95	0xbe9e670e	-0.30938
96	0xbf130650	-0.5743151
97	0xbdfa95cf	-0.12235605
98	0xbf58137b	-0.84404725
99	0xbec707d2	-0.38873154
100	0xbf04ef88	-0.51927996
101	0x3ea98dbc	0.33115947
102	0x3e79c84b	0.24392812
103	0x3ea41ae3	0.32051763
104	0x3f047da3	0.51754206
105	0x3f686999	0.9078613
106	0xbdd0e4f9	-0.10199923
107	0x3f6ce407	0.9253544
108	0x3ef0c916	0.47028416
109	0xbf7a9a1f	-0.9789142
110	0x3d133f99	0.035949323
111	0x3f306cb4	0.6891587
112	0xbed5beae	-0.4174704
113	0x3c704823	0.014665636
114	0xbf08db7b	-0.534599
115	0xbf7d6f76	-0.989982
116	0x3e6243fb	0.22096245
117	0x3bee3430	0.007269405
118	0x3f739107	0.9514317
119	0xbfb395ed	-1.4030129
120	0xbf757066	-0.9587463
121	0x3f2a8393	0.66607016
122	0xbe2672c1	-0.16254713
123	0xbe033757	-0.12814079
124	0xbf073dfc	-0.52828956
125	0x3eb56e14	0.35435545
126	0x3e999154	0.2999369
127	0xbf597a56	-0.84952295
128	0x3f86f540	1.0543594
129	0xbf110970	-0.56655025
130	0x3f80f284	1.007401
131	0xbf54559e	-0.8294314
132	0x3ed19bc7	0.4093916
133	0xbf314d1c	-0.69258285
134	0x3dfb47dc	0.122695655
135	0x3f7bae06	0.98312414
136	0x3f242663	0.64121073
137	0xbea2768d	-0.31731072
138	0x3dfe1db5	0.1240801
139	0x3f199d04	0.6000521
140	0xbf2ccb70	-0.6749792
141	0xbec8aa5a	-0.39192468
142	0x3ef076b0	0.4696555
143	0xbcb6397b	-0.022244206

down_path.0.block1.conv.3.bias f4 [4]
0	0xbfa9a09f	-1.3252143
1	0xbe7e1703	-0.24813466
2	0x3ddb3f65	0.10705451
3	0x3eb1a273	0.3469425

down_path.0.block1.conv.4.weight f4 [4]
0	0x3f534c5c	0.8253839
1	0x3f3c1501	0.7346955
2	0x3f0bf00d	0.54663163
3	0x3f19f059	0.60132366

down_path.0.block1.conv.4.bias f4 [4]
0	0x3fc43aa2	1.5330393
1	0xbf248c02	-0.64276135
2	0x3f742ba4	0.9537909
3	0x3ee47a51	0.4462457

down_path.0.block1.conv.4.running_mean f4 [4]
0	0xc0c97c95	-6.296458
1	0x4032b7f5	2.7924778
2	0xbf5409b7	-0.82827324
3	0x3f0deec8	0.55442476

down_path.0.block1.conv.4.running_var f4 [4]
0	0x414139ae	12.076582
1	0x40bff533	5.9986815
2	0x413625da	11.384241
3	0x40e4d89d	7.151442

down_path.0.block2.shortcut.0.weight f4 [8, 4, 1, 1]
0	0x3d9f849f	0.07788967
1	0xbf0502dd	-0.51957494
2	0xbff96587	-1.9484109
3	0xbe2ab874	-0.16671926
4	0x3f82861e	1.0197179
5	0x3ebd8792	0.37017494
6	0xbd94b750	-0.072615266
7	0xbff0f726	-1.8825424
8	0x3d961a8c	0.07329282
9	0xc020633b	-2.5060565
10	0xbed573cf	-0.41689917
11	0x3a861ba7	0.001023163
12	0x3f19066b	0.5977542
13	0xbea2edc6	-0.31822032
14	0xbff51314	-1.9146447
15	0x3efaca28	0.48982358
16	0x3f017b71	0.5057898
17	0x3e33a95f	0.17545079
18	0xbf895946	-1.0730369
19	0xbf3a0365	-0.7266143
20	0xbf60d025	-0.87817603
21	0x3e9db39f	0.30801103
22	0x3f9a14c6	1.203759
23	0x3fa96884	1.3235021
24	0x3f80fdaf	1.0077418
25	0x3f98d6f2	1.1940596
26	0xbea58884	-0.32330716
27	0xbef02117	-0.46900246
28	0xbed9b46e	-0.4252047
29	0xbf847990	-1.0349598
30	0xbe6b135c	-0.22956604
31	0x3fb1e495	1.3897883

down_path.0.block2.shortcut.1.weight f4 [8]
0	0x3f8e48bf	1.111595
1	0x3feb9024	1.8403363
2	0x3fbeb770	1.4899731
3	0x3fc9ad1b	1.5755953
4	0x3f690d81	0.9103623
5	0x3fbf3d46	1.4940574
6	0x3fdd9398	1.7310667
7	0x3fadd892	1.3581717

down_path.0.block2.shortcut.1.bias f4 [8]
0	0x3da66fdf	0.081268065
1	0xbe785ed4	-0.24254924
2	0x3ea2f23b	0.31825432
3	0xbf32ee54	-0.6989491
4	0x3e528650	0.20559049
5	0x3ef27f4f	0.47362754
6	0x3d9f16d0	0.07768023
7	0xbe2a8490	-0.16652131

down_path.0.block2.shortcut.1.running_mean f4 [8]
0	0xc01b9288	-2.4308186
1	0x3fd21ab9	1.6414405
2	0x3f2fdf14	0.68699765
3	0xbfeef481	-1.8668367
4	0xbf3c1e25	-0.73483497
5	0x3c72903e	0.014804898
6	0x3f0c0b86	0.54705083
7	0xbf4893c2	-0.7835046

down_path.0.block2.shortcut.1.running_var f4 [8]
0	0x406fce46	3.746965
1	0x411219a0	9.131256
2	0x41e5f386	28.743908
3	0x408e4b68	4.446705
4	0x40a4b7a6	5.147418
5	0x40b43ccb	5.632421
6	0x4160a170	14.039413
7	0x413166dc	11.087612

down_path.0.block2.conv.0.weight f4 [8, 4, 3, 3]
0	0xbf86b413	-1.0523704
1	0x3fa153f2	1.2603743
2	0x3fa80893	1.3127617
3	0xbda6f1ec	-0.08151612
4	0xbf37ad48	-0.7174878
5	0xbea514a8	-0.32242322
6	0x3def69cb	0.116901
7	0xbf0c422c	-0.5478847
8	0x3e4638c2	0.19357589
9	0xbdadcc62	-0.084862486
10	0xbddf9342	-0.10916759
11	0x3e25de4e	0.16198084
12	0xbf10bdcf	-0.56539625
13	0xbf3d9e67	-0.7406983
14	0xbe3a0f72	-0.18169954
15	0xbef321c7	-0.47486708
16	0x3f17704f	0.59155744
17	0xbf04e352	-0.51909363
18	0xbcc86cbd	-0.024465913
19	0xbf59e6b7	-0.8511767
20	0xbe4f5d68	-0.20250475
21	0xbfc756f4	-1.5573411
22	0x3f556ddc	0.8337076
23	0xbde3a6ba	-0.11115785
24	0xbf127f81	-0.57225806
25	0xbeb87f02	-0.360344
26	0xbf1c2e11	-0.6100779
27	0x3f669e30	0.90085125
28	0xbf0c5f2c	-0.5483272
29	0xbf78c308	-0.97172594
30	0x3eca5849	0.3952048
31	0x3f0f34a9	0.5593973
32	0xbeb245fb	-0.34819016
33	0xbf6eb06c	-0.9323795
34	0x3ea250f9	0.31702402
35	0x3f025b0d	0.5092018
36	0xbebbc802	-0.3667603
37	0xbf7d08c0	-0.98841476
38	0xbe84ff99	-0.25976256
39	0x3f4827ed	0.7818592
40	0x3ed62b04	0.41829693
41	0x3eaee09b	0.34155735
42	0x3f18d364	0.59697556
43	0x3e9708d5	0.29498926
44	0x3e4d4301	0.20045091
45	0xbf861ee6	-1.047818
46	0xbe295a42	-0.16538337
47	0xbf0921d6	-0.53567255
48	0x3fb8a045	1.442391
49	0x3ed45fa8	0.4147923
50	0x3e329072	0.17437914
51	0x3d29ff6c	0.041503355
52	0x3e546ee6	0.2074543
53	0x3cbf5541	0.023356082
54	0x3d241abd	0.040064562
55	0x3f8fab8d	1.1224228
56	0x3ef28fb0	0.4737525
57	0xbf15b5a1	-0.5848027
58	0x3f5209dd	0.820463
59	0xbf59abbb	-0.85027665
60	0x3dee05c1	0.11622191
61	0xbefdf48b	-0.49600634
62	0xbdbdf885	-0.09275917
63	0x3f9bc9ae	1.2170923
64	0xbf029973	-0.51015395
65	0x3f2d97e9	0.6780992
66	0xbe3a1fbd	-0.1817617
67	0x3e8f1068	0.27942204
68	0xbea92c00	-0.33041382
69	0x3f1d2875	0.6138986
70	0xbea42d6a	-0.32065898
71	0xbe26fb62	-0.16306832
72	0xbb8015dc	-0.003908856
73	0x3e12ba92	0.14328983
74	0xbef2ac88	-0.47397256
75	0xbfb01836	-1.3757389
76	0xbebe6488	-0.37186074
77	0x3e82ef96	0.25573415
78	0xbfb124e6	-1.3839386
79	0x3e93dae5	0.2887794
80	0x3eee2447	0.46512052
81	0xbef7f9c7	-0.48432752
82	0x3f51a737	0.81895775
83	0xbf9158a4	-1.1355176
84	0xbdd0b289	-0.10190303
85	0x3e80fc58	0.25192523
86	0x3eaf4a9a	0.34236604
87	0x3e324ffb	0.17413323
88	0x3e599884	0.21249586
89	0xbf25b0c4	-0.6472285
90	0xbda25aba	-0.07927461
91	0x3e16e1fb	0.14734642
92	0x3fbd2f4f	1.4780062
93	0x3ea2d8ed	0.31806126
94	0xbea831f4	-0.3285061
95	0xbf3a63ab	-0.7280833
96	0xbe0d7489	-0.13813986
97	0x3f4ca9de	0.79946697
98	0x3e9a5d70	0.30149412
99	0x3f499d08	0.78755236
100	0xbf575412	-0.84112656
101	0xbe8f3067	-0.27966616
102	0x3f7c481f	0.9854755
103	0xbedb7649	-0.42863682
104	0x3f212691	0.6294947
105	0xbf8242d2	-1.0176642
106	0x3c86cee7	0.01645608
107	0x3f3abf68	0.7294831
108	0xbebdc7c2	-0.37066466
109	0x3e9dc56f	0.30814692
110	0xbf06521b	-0.52469033
111	0xbefb66be	-0.49101824
112	0x3f10c57d	0.56551343
113	0xbd967424	-0.07346371
114	0xbf4b052d	-0.7930477
115	0x3fc1a69f	1.5128974
116	0x3f39ee65	0.72629386
117	0x3eeae7f2	0.45880085
118	0xbe9059f4	-0.2819363
119	0x3ee9984d	0.4562401
120	0x3f735622	0.95053303
121	0x3ecc8197	0.3994262
122	0x3e16edd8	0.14739168
123	0xbeae35ec	-0.34025514
124	0xbe712a3f	-0.23551272
125	0xbe2b68b9	-0.16739167
126	0xbf5c8bd2	-0.8615085
127	0x3e0a96c5	0.13534077
128	0xbf4541dc	-0.7705362
129	0x3f5c792c	0.86122394
130	0x3e450e85	0.1924382
131	0xbd88821c	-0.066654414
132	0x3ec36c3b	0.3816851
133	0xbea81e2c	-0.3283552
134	0x3daf349b	0.085549556
135	0x3e8ea4d5	0.27860132
136	0x3c293cb6	0.010329416
137	0xbe45d284	-0.19318587
138	0x3e7c4289	0.24634756
139	0x3e4d34fb	0.20039742
140	0x3d703db0	0.05865258
141	0x3f44de8b	0.76902074
142	0xbdb6fdd1	-0.089351304
143	0xbeebc6e4	-0.4605018
144	0xbf850ea6	-1.0395095
145	0xbf47d8ce	-0.7806519
146	0xbca44047	-0.020050181
147	0x3e71cc95	0.23613198
148	0x3e034da0	0.1282258
149	0x3d49ca5e	0.049265258
150	0xbf1f962a	-0.6233851
151	0xbeb3cb8d	-0.35116234
152	0xbf0fc508	-0.5616002
153	0x3f32191e	0.69569576
154	0xbe23bed1	-0.1599076
155	0xbe51b2ef	-0.20478414
156	0x3fc7a56c	1.5597358
157	0xbe14b601	-0.14522554
158	0x3d025d32	0.03182716
159	0xbdd60408	-0.10449988
160	0xbeff09fd	-0.49812308
161	0xbddeb981	-0.10875226
162	0x3c9f01c9	0.01941003
163	0x3c0a0c8c	0.008425843
164	0x3ea814d4	0.3282839
165	0x3fb410c4	1.4067616
166	0xbf09fcdf	-0.53901476
167	0xbe3aee03	-0.18254857
168	0xbf8289e5	-1.0198332
169	0xbf93d37b	-1.1548914
170	0x3bf383c8	0.007431481
171	0xbf2de1ea	-0.6792284
172	0x3dc915aa	0.09818585
173	0x3e49ed3a	0.19719401
174	0xbfa25e76	-1.2685077
175	0x3dffa96d	0.12483487
176	0x3e33cba1	0.17558147
177	0xbd8d0210	-0.06885159
178	0xbd8833c3	-0.06650498
179	0x3d1866b3	0.037207317
180	0x3ed882b5	0.42287222
181	0xbdb956b6	-0.09049742
182	0xbdc4e474	-0.096138865
183	0x3f88ff8e	1.0702989
184	0xbdf9fe12	-0.12206663
185	0xbe9203fe	-0.2851867
186	0x3ecec4ef	0.40384623
187	0xbf8cc34a	-1.0997097
188	0xbe878dff	-0.26475522
189	0x3f14e9a5	0.58169013
190	0xbf18059b	-0.59383553
191	0xbe2643cd	-0.16236801
192	0x3e3b44b7	0.18287931
193	0xbf693d0f	-0.91108793
194	0xbf058b44	-0.5216563
195	0x3efb7d06	0.49118823
196	0xbf3e7305	-0.74394256
197	0x3ed531fe	0.41639704
198	0xbf75ea8d	-0.9606102
199	0x3f4fc6c6	0.8116268
200	0xbe640f95	-0.22271569
201	0xbeeb6881	-0.45978168
202	0x3dd17c73	0.10228815
203	0x3f41a24a	0.7563826
204	0xbf14a069	-0.58057266
205	0x3f6c0882	0.9220048
206	0x3e3ba7ce	0.18325731
207	0xbfaa9e3c	-1.3329539
208	0x3f229665	0.63510734
209	0x3ea428eb	0.32062468
210	0xbe303cfa	-0.1721076
211	0x3e8723f1	0.2639461
212	0xbf1494e4	-0.5803969
213	0xbe34cb35	-0.17655642
214	0x3f7809de	0.96890056
215	0xbe15e429	-0.14637817
216	0xbf4b0ee5	-0.793196
217	0x3f28f223	0.6599447
218	0xbe5189b6	-0.20462689
219	0xbf8264d9	-1.0187026
220	0xbdbd2a33	-0.092365645
221	0x3f898205	1.0742804
222	0xbd2d86d0	-0.042364895
223	0xbcaaad40	-0.020834565
224	0xbe9a757c	-0.30167758
225	0x3ea59d2b	0.32346472
226	0x3f6f19a2	0.9339849
227	0x3f8f7e1d	1.1210362
228	0x3f002d57	0.50069183
229	0xbf52eda9	-0.8239389
230	0xbe950d58	-0.29111743
231	0xbd2c471a	-0.042059995
232	0xbf48ddcf	-0.78463453
233	0xbf773535	-0.9656556
234	0xbd683251	-0.05668861
235	0xbe212078	-0.15735042
236	0x3d6150c2	0.055008657
237	0x3eb49494	0.35269606
238	0xbad047ad	-0.0015890502
239	0xbec38ca5	-0.3819324
240	0xbe124b5a	-0.14286557
241	0x3da05fe5	0.078307904
242	0x3f05c342	0.52251065
243	0xbe3c1df8	-0.18370807
244	0xbf926e51	-1.1439916
245	0xbf277a59	-0.6542106
246	0xbebd1507	-0.36930105
247	0x3f213f15	0.6298688
248	0xbe674ec8	-0.22588646
249	0x3e5ced00	0.21574783
250	0x3f2a5d0c	0.6654823
251	0x3f80326e	1.001539
252	0x3fc5f08c	1.5464034
253	0x3d9c0b1a	0.07619305
254	0xbf1d8d1e	-0.6154345
255	0xbf3b672a	-0.7320429

down_path.0.block2.conv.0.bias f4 [8]
0	0x3eda4ed4	0.42638266
1	0xc002a5d0	-2.0413704
2	0xbf97edc5	-1.1869437
3	0xbeb0a68c	-0.34502065
4	0xbf405d60	-0.7514248
5	0xbe80effc	-0.25183094
6	0x3e9a8c01	0.3018494
7	0x3d3d5470	0.046223104

down_path.0.block2.conv.1.weight f4 [8]
0	0x3f931072	1.1489394
1	0x3fa1d84e	1.2644136
2	0x3fa40163	1.2812923
3	0x3f8f7ba5	1.1209608
4	0x3f64b6c2	0.89341366
5	0x3f816e7f	1.0111846
6	0x3fa835f1	1.3141462
7	0x3f7c6561	0.9859219

down_path.0.block2.conv.1.bias f4 [8]
0	0x3ef22a05	0.47297683
1	0x3f3bc01b	0.73340005
2	0xbef7061b	-0.48246846
3	0x3f515b77	0.8178019
4	0xbdb9cde8	-0.090724766
5	0x3f22d3cf	0.63604444
6	0xbebecf15	-0.37267366
7	0x3ef49bb2	0.47775036

down_path.0.block2.conv.1.running_mean f4 [8]
0	0xc055cc6a	-3.3406014
1	0xbea620bf	-0.32446858
2	0xc000ffd2	-2.015614
3	0xbefe6856	-0.49688977
4	0xc0d61281	-6.689759
5	0x3fa12ea9	1.2592365
6	0xbea70762	-0.3262282
7	0x400a5856	2.1616416

down_path.0.block2.conv.1.running_var f4 [8]
0	0x4189e0b1	17.234713
1	0x4179eb5c	15.619961
2	0x419df95c	19.746758
3	0x4184ba48	16.590958
4	0x41964eb7	18.788435
5	0x41f61836	30.761822
6	0x41a71fcf	20.890532
7	0x41990f89	19.132586

down_path.0.block2.conv.3.weight f4 [8, 8, 3, 3]
0	0xbf0ceaea	-0.5504595
1	0xbfae8f8f	-1.3637561
2	0xbdf3d442	-0.11905719
3	0x3f5c3ab6	0.86027086
4	0x3ebe9afc	0.3722762
5	0x3ecc27f0	0.3987422
6	0x3dd2ef6e	0.10299574
7	0xbdfc96b6	-0.12333433
8	0xbf6878b9	-0.9080921
9	0x3f1ef012	0.6208507
10	0x3dc20a10	0.094745755
11	0xbe6ba982	-0.23013881
12	0xbf266f52	-0.6501361
13	0xbf9ee5b2	-1.2413847
14	0xbf4710eb	-0.7776019
15	0x3e894c5b	0.26816067
16	0xbeb52f6e	-0.35387748
17	0xbefd26d1	-0.49443677
18	0xbe893d7a	-0.26804715
19	0xbd1ddd20	-0.03854096
20	0xbe32f91b	-0.17477839
21	0xbf5669a5	-0.8375495
22	0xbdfaa32b	-0.12238153
23	0x3e569f0e	0.20959112
24	0xbf001e74	-0.5004647
25	0xbdec9748	-0.11552292
26	0x3e934b71	0.28768495
27	0xbdadfd83	-0.08495619
28	0xbf22ccf1	-0.63593966
29	0x3f3087b7	0.68957084
30	0xbf53a7c8	-0.8267789
31	0x3eee0a99	0.4649246
32	0xbf75ada2	-0.9596807
33	0x3e7621c8	0.24036324
34	0xbded7f81	-0.11596585
35	0xbe866d43	-0.26255235
36	0x3da01575	0.078165926
37	0xbf49d36f	-0.7883825
38	0x3d17701f	0.03697216
39	0xbe8fc0f7	-0.28076908
40	0xbf30e0c7	-0.69092983
41	0x3e24b43b	0.16084377
42	0xbe561a98	-0.20908582
43	0x3fa2a8a6	1.2707717
44	0x3ea7f0e4	0.32800972
45	0xbf36a9b4	-0.71352696
46	0x3e55431b	0.2082638
47	0xbe9e6faa	-0.30944568
48	0x3fa5d583	1.2955784
49	0x3f30a012	0.6899425
50	0x3f08dc58	0.5346122
51	0x3ed62f00	0.41832733
52	0x3e052826	0.13003597
53	0xbf33c91c	-0.70228744
54	0xbe30c11a	-0.17261162
55	0x3fc7416f	1.5566844
56	0x3ebd4c9d	0.36972514
57	0x3fcc6ce3	1.597073
58	0x3f578f1a	0.8420273
59	0xbe07e5af	-0.13271211
60	0xbeb21091	-0.34778264
61	0xbf29a806	-0.6627201
62	0xbeb41435	-0.35171667
63	0x3f4c6f1c	0.7985704
64	0xbf273b73	-0.6532509
65	0xbce42aed	-0.0278525
66	0xbedafabb	-0.42769417
67	0x3daa7c6f	0.08324515
68	0xbea56891	-0.3230634
69	0xbec0bbf0	-0.37643385
70	0x3d99b732	0.07505645
71	0x3f694a32	0.9112884
72	0xbeb4fc6a	-0.35348827
73	0x3fa15141	1.2602922
74	0xbf0b6971	-0.54457766
75	0xbf1fb7ed	-0.62390023
76	0x3fc2b3c9	1.5211116
77	0xbf0ea392	-0.5571834
78	0xbf200ab2	-0.6251632
79	0x3f62eefc	0.8864591
80	0xbe30eefa	-0.17278662
81	0x3eb626e5	0.3557655
82	0xbec634a4	-0.38712037
83	0xbdd72493	-0.10505023
84	0x3e34c372	0.17652681
85	0x3ed31e17	0.41233894
86	0xbf85a916	-1.0442226
87	0xbf2b0f5f	-0.6682033
88	0x3e6d35e5	0.2316509
89	0x3ecba28d	0.39772454
90	0xbe9acec2	-0.3023587
91	0x3edc63e7	0.4304497
92	0xbeea2155	-0.45728555
93	0xbee2b791	-0.44280675
94	0x3e8c1ae6	0.27364272
95	0x3e6c5b1f	0.23081635
96	0x3eb82494	0.35965407
97	0xbf353ca9	-0.70795685
98	0x3eb024dc	0.3440312
99	0xbd2a67eb	-0.04160301
100	0xbf318782	-0.69347394
101	0x3f0e067d	0.5547865
102	0x3f52b5f4	0.8230889
103	0xbfd1c1fd	-1.6387326
104	0x3eed887b	0.4639319
105	0x3ed8ebbb	0.42367348
106	0xbea42d79	-0.32065943
107	0x3da8e6ae	0.08247124
108	0x3e9598c9	0.29218128
109	0xbf85dedd	-1.0458637
110	0xbe2b9f53	-0.16759996
111	0x3e75f080	0.24017525
112	0xbec751f0	-0.389297
113	0xbe985511	-0.297524
114	0x3e8f769a	0.28020173
115	0xbe779bc3	-0.24180512
116	0xbd00ee1a	-0.03147707
117	0x3f808542	1.0040667
118	0x3ec717ef	0.38885447
119	0xbeea197d	-0.4572257
120	0xbf051d2a	-0.51997626
121	0x3f81cbfc	1.0140376
122	0xbf19b04a	-0.6003462
123	0xbe4a25c6	-0.19740972
124	0x3f5d68c3	0.8648798
125	0xbf2d0cff	-0.67597955
126	0x3ef2cc46	0.47421473
127	0xbed25e18	-0.41087413
128	0x3de59635	0.1121029
129	0x3e88df64	0.26732934
130	0x3daacea8	0.08340198
131	0xbf49d366	-0.78838193
132	0xbf271123	-0.65260524
133	0x3f018148	0.5058789
134	0x3db21d30	0.08696973
135	0xbf18750c	-0.595536
136	0xbef407d6	-0.47662228
137	0x3c8f7e45	0.017516265
138	0xbe57fd79	-0.21092786
139	0x3f2136a5	0.62974006
140	0x3e1570f1	0.14593865
141	0xbf48287f	-0.7818679
142	0x3ee724a4	0.45145142
143	0xbed80564	-0.42191613
144	0xbe9f545f	-0.31119058
145	0x3f617a33	0.88077086
146	0x3e8ae0cb	0.27124628
147	0x3d9f81d0	0.07788432
148	0xbbeff10f	-0.0073224376
149	0x3f1d5c9a	0.61469424
150	0xbe98c382	-0.2983666
151	0xbf420486	-0.7578815
152	0xbe863a34	-0.2621628
153	0x3ddfe20f	0.10931789
154	0xbf26900c	-0.6506355
155	0x3eaf8298	0.34279323
156	0xbdd8a02b	-0.105774246
157	0x3f936560	1.1515312
158	0x3f9fda3b	1.2488474
159	0xbc832372	-0.016008113
160	0x3f3053c4	0.68877816
161	0x3f4b0a90	0.7931299
162	0xbe00af75	-0.12566932
163	0x3e07e468	0.13270724
164	0x3f4c3f95	0.7978452
165	0x3e970819	0.29498366
166	0xbee820a0	-0.4533739
167	0x3e77b9ca	0.24191967
168	0x3d16818f	0.03674465
169	0x3f89aa43	1.0755085
170	0xbfa409e8	-1.2815523
171	0xbe529f24	-0.2056852
172	0xbcc07d06	-0.023497116
173	0x3edb6caa	0.42856342
174	0xbf41fed4	-0.7577946
175	0xbe0dc601	-0.13845064
176	0x3f41a0c2	0.7563592
177	0xbe68e03f	-0.22741793
178	0xbe7fe8a0	-0.24991083
179	0xbe9944cb	-0.29935297
180	0xbebf53f2	-0.37368733
181	0x3e07f442	0.1327677
182	0xbf06160b	-0.52377385
183	0xbebe1b45	-0.3713018
184	0x3f131ffd	0.57470685
185	0xbe3d799e	-0.18503425
186	0x3ec13d7b	0.37742218
187	0x3f0c4b60	0.54802513
188	0x3f943a30	1.1580257
189	0x3f8e3a1c	1.1111484
190	0xbed8d7c2	-0.4235211
191	0x3f0a4cd7	0.540235
192	0x3dbad1bd	0.09122036
193	0x3e9f0035	0.31054845
194	0xbecd7bd4	-0.40133536
195	0xbf6d2a37	-0.9264254
196	0xbf1b0da0	-0.60567665
197	0x3e9debe5	0.30844036
198	0x3de5568b	0.111981474
199	0xbf47f991	-0.78115183
200	0x3f5714bb	0.8401601
201	0x3f2f6235	0.6850923
202	0xbe1a7c35	-0.15086444
203	0x3c95371d	0.018214757
204	0xbe528bab	-0.20561092
205	0xbea8545b	-0.32876858
206	0xbf26d534	-0.6516907
207	0xbf81ee00	-1.0150757
208	0x3cb8d151	0.022560747
209	0x3f016f95	0.50560886
210	0x3d9bac49	0.0760122
211	0x3db912e6	0.09036808
212	0xbf426f09	-0.75950676
213	0x3eb7faf3	0.35933647
214	0x3f853324	1.0406232
215	0xbea6166b	-0.3243898
216	0x3eb4e3d1	0.3533006
217	0xbfa20b1e	-1.2659643
218	0xbed0e088	-0.40796304
219	0x3e99ec7c	0.30063236
220	0x3e04f0c9	0.12982477
221	0x3f7c3b5d	0.9852808
222	0x3efa414b	0.4887794
223	0x3e5a5c65	0.21324308
224	0xbe05a072	-0.13049486
225	0xbedd3390	-0.43203402
226	0xbe5616d3	-0.20907144
227	0x3f1e3428	0.61798334
228	0xbeaa3b4c	-0.33248365
229	0x3f8014fc	1.0006404
230	0xbf64b651	-0.8934069
231	0x3e57c0de	0.21069667
232	0xbf49acfa	-0.78779566
233	0x3e8d0e05	0.2754976
234	0x3e2f8409	0.17140211
235	0xbf84c45a	-1.0372422
236	0x3e76640d	0.24061604
237	0xbeae4ed4	-0.34044516
238	0x3e377744	0.1791659
239	0xbed2022e	-0.41017288
240	0xbf86cc04	-1.0531011
241	0x3caff1db	0.02147763
242	0x3f1a3eaa	0.6025187
243	0x3e468cdd	0.19389673
244	0x3ede64fc	0.4343642
245	0x3f77d651	0.96811396
246	0x3f90e631	1.1320249
247	0xbe99cd97	-0.30039665
248	0xbbeb5207	-0.0071814093
249	0xbf389371	-0.7209998
250	0xbb8a1313	-0.0042136996
251	0xbe0bea9c	-0.13663715
252	0xbe8fd863	-0.28094777
253	0x3f76ffec	0.96484256
254	0x3eafcebc	0.34337413
255	0xbfb50eea	-1.4145176

down_path.0.block2.conv.3.bias f4 [8]
0	0xbed0d4ad	-0.4078726
1	0x3f660e21	0.8986531
2	0xbf65ce9a	-0.89768374
3	0xbe9b9a80	-0.30391312
4	0x3f5b5311	0.85673624
5	0xbeceb71d	-0.4037408
6	0x3e11778f	0.14205764
7	0x3eeed65f	0.46647927

down_path.0.block2.conv.4.weight f4 [8]
0	0x3eca4187	0.39503118
1	0x3eca59c0	0.395216
2	0x3ec25519	0.3795555
3	0x3e8b510d	0.27210274
4	0x3edd51cb	0.43226466
5	0x3ed93ad7	0.42427704
6	0x3f65abb0	0.897151
7	0x3ec93ae6	0.39302748

down_path.0.block2.conv.4.bias f4 [8]
0	0x3dcfb689	0.10142238
1	0x3ec01fe0	0.3752432
2	0x3e8e632d	0.2781004
3	0x3df1aada	0.118001655
4	0x3eeb1495	0.4591414
5	0xbeaf71af	-0.3426642
6	0xbeeca9ec	-0.4622339
7	0x3c9f8f2e	0.019477453

down_path.0.block2.conv.4.running_mean f4 [8]
0	0xc06f0364	-3.734582
1	0xbe626dea	-0.22112241
2	0x400e6b97	2.2253168
3	0x4017daeb	2.3727367
4	0x4009ac65	2.1511471
5	0x40e552ac	7.166342
6	0x4077e290	3.8732033
7	0xc0379bdc	-2.868888

down_path.0.block2.conv.4.running_var f4 [8]
0	0x41c17dcc	24.186424
1	0x41ab36ce	21.40176
2	0x419d1e53	19.639807
3	0x41b85c6e	23.045132
4	0x4248b970	50.18109
5	0x41475e72	12.460558
6	0x41af783c	21.933708
7	0x4166c51f	14.423125

down_path.0.block2.softmax1_blocks.weight f4 [8, 4, 3, 3]
0	0xbdbba52c	-0.091623634
1	0xbf0145f6	-0.50497377
2	0xbd89e8f5	-0.06733886
3	0xbf0381e4	-0.5137007
4	0x3ed89a3a	0.42305166
5	0xbf290ee3	-0.6603834
6	0x3edc1d69	0.42991188
7	0x3f8ce421	1.100712
8	0xbdc2a7be	-0.095046505
9	0x3e09066a	0.13381353
10	0x3ecb0147	0.39649412
11	0xbe1ac178	-0.15112865
12	0xbefc7bf7	-0.49313328
13	0xbe12f876	-0.14352593
14	0xbf654a54	-0.8956654
15	0xbef96fb3	-0.48718032
16	0x3ec25552	0.3795572
17	0xbcd5413c	-0.026032083
18	0xbed566f6	-0.41680115
19	0xbffa01f5	-1.9531847
20	0xbe8d191c	-0.2755822
21	0xbf5df6f5	-0.8670495
22	0x3ea84c4a	0.32870704
23	0x3fa676b3	1.3004974
24	0x3ef415bb	0.4767283
25	0x3eece1c9	0.4626601
26	0x3f2d0cb2	0.67597497
27	0xbd1391ae	-0.036027603
28	0x3ea2e69f	0.31816575
29	0x3d3b760a	0.045766868
30	0x3f5a8228	0.8535485
31	0xbf6fe49f	-0.93708223
32	0x3e8f578b	0.27996477
33	0x3f498183	0.78713244
34	0xbeef643d	-0.46756163
35	0xbe826518	-0.25467753
36	0xbdc2e9e3	-0.095172666
37	0xbf0eadca	-0.5573393
38	0x3ee6a59c	0.45048225
39	0xbec1cbb4	-0.37850726
40	0xbf0ed35c	-0.5579126
41	0xbd82920e	-0.06375514
42	0xbea808b5	-0.32819143
43	0xbe9a53b0	-0.30141973
44	0xbf313d0b	-0.6923377
45	0x3eebfb22	0.46090037
46	0xbf54e101	-0.8315583
47	0xbf85c9a1	-1.0452157
48	0xbf56cb55	-0.8390401
49	0xbf5d852e	-0.8653134
50	0x3e548c6b	0.2075669
51	0xbd8044fb	-0.06263157
52	0x3d8c9860	0.06865001
53	0xbf587251	-0.84549433
54	0x3e1a5db9	0.15074815
55	0x3ec817c8	0.39080644
56	0x3f215ea2	0.63035023
57	0x3e66aa72	0.22525957
58	0x3e88b8c9	0.2670348
59	0xbd5e3700	-0.05425167
60	0x3efef8d2	0.4979921
61	0xbec559c4	-0.38545048
62	0x3f033845	0.51257735
63	0xbddccf8e	-0.107817754
64	0x3e93d450	0.2887292
65	0x3f05320d	0.52029496
66	0x3eea9c0b	0.45822176
67	0x3f121f24	0.57078767
68	0xbec2732e	-0.379785
69	0xbf112e3f	-0.5671119
70	0x3e9da19f	0.3078737
71	0x3fb9a783	1.4504246
72	0xbe7ad21e	-0.24494216
73	0x3f264987	0.64955944
74	0x3ee24a0a	0.44197112
75	0xbdfe3c5e	-0.12413858
76	0x3c25cc1f	0.010119467
77	0xbc3b7f98	-0.011443995
78	0xbf48ce25	-0.7843955
79	0x3f520f95	0.82055026
80	0xbf2cdf1e	-0.6752795
81	0xbf341129	-0.70338684
82	0x3eab0d14	0.33408415
83	0xbeb97f59	-0.3622997
84	0x3f343de6	0.7040695
85	0x3ed9969c	0.42497718
86	0x3ed51dba	0.41624242
87	0xbf85d295	-1.045489
88	0x3e2b3635	0.16719897
89	0xbf852afe	-1.0403745
90	0xbb9a5548	-0.0047098733
91	0xbe8ed9e5	-0.27900615
92	0x3f199cb4	0.60004735
93	0x3e9ba44b	0.30398783
94	0xbe8936dc	-0.26799667
95	0xbecb67bb	-0.39727578
96	0x3f467688	0.77524614
97	0xbf051e3e	-0.5199927
98	0x3eb53956	0.35395306
99	0xbf637bc1	-0.8886071
100	0xbec2627e	-0.3796577
101	0xbf1f2a4e	-0.62173927
102	0xbedbba73	-0.42915687
103	0x3db911b7	0.09036582
104	0xc009b1a9	-2.1514685
105	0xbcd45c4e	-0.02592292
106	0xbf815696	-1.0104549
107	0x3efa7473	0.4891697
108	0x3dc60d2f	0.09670483
109	0xbf118d34	-0.56856084
110	0xbf02bd3a	-0.51069987
111	0x3ef4cc27	0.47812006
112	0xbdfb57de	-0.12272619
113	0x3e9353d0	0.2877488
114	0x3f288920	0.65834236
115	0x3da24e89	0.07925136
116	0x3f3c1716	0.73472726
117	0xbf6e17d2	-0.93005097
118	0x3f753864	0.9578917
119	0xbefe0ae8	-0.49617696
120	0x3b036d4c	0.002005416
121	0x3f530477	0.8242869
122	0x3f111b2f	0.56682104
123	0xbf5253f7	-0.8215937
124	0xbf381280	-0.7190323
125	0xbe2b70e7	-0.16742288
126	0xbe997a6a	-0.29976207
127	0x3d9022e5	0.070379056
128	0xbe9944e6	-0.29935378
129	0x3e7cecda	0.24699727
130	0x3e761c9e	0.24034354
131	0xbfb26667	-1.3937501
132	0x3f074018	0.52832174
133	0x3f76b24a	0.963658
134	0xbee52dd9	-0.4476154
135	0x3f165775	0.587272
136	0xbe8b1fc8	-0.27172685
137	0x3e96a9c1	0.29426387
138	0xbdbff61f	-0.09373116
139	0x3e720cfb	0.23637764
140	0xbdaf68b9	-0.08564896
141	0x3d309c44	0.043117777
142	0xbe8cba07	-0.27485678
143	0x3dfb768e	0.12278472
144	0x3e261588	0.16219151
145	0xbeb67433	-0.35635528
146	0x3e11122a	0.14167085
147	0xbe8863ff	-0.2663879
148	0x3ec93f8a	0.3930629
149	0x3f3c7f01	0.7363129
150	0xbf5f8bd6	-0.8732275
151	0xbca94216	-0.020661395
152	0x3e695926	0.22787914
153	0xbf0d9413	-0.5530407
154	0xbe57ea97	-0.21085583
155	0x3ebe8cde	0.37216848
156	0x3f369e32	0.71335137
157	0xbf6892c3	-0.9084894
158	0x3e3b169a	0.1827034
159	0x3f152513	0.58259696
160	0x3fa44de2	1.2836268
161	0xbfc17a1c	-1.511539
162	0xbf457cca	-0.7714354
163	0xbca9e8aa	-0.020740826
164	0xbf9f71b4	-1.2456574
165	0xbf78b082	-0.9714433
166	0x3f7d88a9	0.9903665
167	0xbf493152	-0.7859088
168	0xbd0ddf83	-0.034636986
169	0x3f645455	0.8919118
170	0x3e0362f7	0.12830721
171	0xbeb03fc2	-0.34423643
172	0x3f36debf	0.71433634
173	0x3f27b0d3	0.6550419
174	0xbee09d15	-0.43869844
175	0xbe3c27eb	-0.18374602
176	0xbe6778f0	-0.22604728
177	0xbf109314	-0.56474423
178	0xbfa5a376	-1.2940509
179	0x3f1990bb	0.59986466
180	0xbece1d03	-0.4025651
181	0x3dde723a	0.10861631
182	0x3d8cfdb3	0.06884327
183	0xbe74a946	-0.23892698
184	0xbc735d8d	-0.014853847
185	0x3dbc66e3	0.091993116
186	0xbcb2d23f	-0.021828769
187	0x3ee73741	0.45159343
188	0xbf5986d0	-0.8497133
189	0xbe32df00	-0.1746788
190	0xbc4b4e58	-0.012408815
191	0x3eaab13c	0.33338344
192	0x3de005a1	0.10938574
193	0x3f68c9e1	0.9093304
194	0xbcc0b6ec	-0.023524724
195	0xbd769adb	-0.060206275
196	0xbd082b79	-0.033244584
197	0xbf64084f	-0.8907518
198	0x3fdb29b1	1.7122098
199	0xbf106875	-0.5640939
200	0xbf23f320	-0.64042854
201	0x3f0b5767	0.5443024
202	0xbd21627d	-0.039400566
203	0x3e50ee69	0.20403446
204	0x3ddd8edb	0.10818263
205	0xbfa7cb6c	-1.3108954
206	0x3cde16c7	0.02711047
207	0x3f1aef17	0.6052107
208	0x3eddfe9a	0.43358308
209	0x3eacbf1d	0.33739558
210	0x3d262aaa	0.04056803
211	0x3d7f5b8d	0.06234317
212	0xbf5ed53c	-0.8704412
213	0xbdfaf2c3	-0.122533344
214	0x3e6853a2	0.22688153
215	0x3f17b800	0.59265137
216	0xbbb4f9df	-0.005522951
217	0xbe4d857d	-0.20070453
218	0x3e891f55	0.26781717
219	0xbda6ef00	-0.081510544
220	0x3e069021	0.13140918
221	0xbda49a96	-0.080372974
222	0xbd10d401	-0.035358433
223	0x3ed2e44a	0.41189796
224	0xbe2c0322	-0.1679807
225	0x3fdd4334	1.7286134
226	0xbe1d53ea	-0.15364042
227	0xbe311985	-0.17294891
228	0xbf78e95b	-0.9723107
229	0xbff3a586	-1.9034889
230	0x3e8ec69e	0.27885908
231	0x3ee51d5f	0.4474897
232	0xbf70cd38	-0.9406314
233	0x3eca5ac9	0.3952239
234	0xbebd9917	-0.3703086
235	0xbf0ebb02	-0.557541
236	0xbf16ddb4	-0.5893204
237	0x3f0bb4b1	0.5457259
238	0x3e782204	0.24231726
239	0xbf113136	-0.56715715
240	0x3e89563a	0.26823598
241	0xbdb6386a	-0.08897479
242	0xbf8f0942	-1.11747
243	0xbf1ccd21	-0.612505
244	0xbc0515f6	-0.008122912
245	0xbe0f6aeb	-0.1400563
246	0xbf61b2bd	-0.8816336
247	0x3e0ab495	0.13545449
248	0x3e5ddc57	0.21666084
249	0xbf85d078	-1.0454245
250	0x3ea8882c	0.3291639
251	0x3e703404	0.23457342
252	0xbe99d540	-0.3004551
253	0x3f81abde	1.0130575
254	0xbdd7e95a	-0.10542555
255	0x3e59dea1	0.21276332

down_path.0.block2.softmax1_blocks.bias f4 [8]
0	0xbfad154e	-1.3522127
1	0x3f3cc751	0.7374163
2	0x3f4df610	0.80453587
3	0x3ea37544	0.31925404
4	0xbce7055a	-0.028200794
5	0xbfcae52f	-1.5851191
6	0x3dfb5e48	0.12273842
7	0xbe01a6eb	-0.1266133

down_path.0.block2.skip1_connection_residual_block.weight f4 [8, 8, 3, 3]
0	0xbe68af7c	-0.22723192
1	0xc02f9975	-2.7437413
2	0xc0310325	-2.765817
3	0x3e538c01	0.20658876
4	0x3e8f2056	0.27954358
5	0xbf7447e7	-0.95422214
6	0x3eb0bc03	0.34518442
7	0x3f9c0768	1.218976
8	0xc0055bf7	-2.083738
9	0x3f2ca989	0.6744619
10	0x3fe22b5c	1.7669482
11	0x3f83b169	1.0288516
12	0x3f12a8c7	0.57288784
13	0x3feda52e	1.8566034
14	0x3f5784c2	0.8418695
15	0x3f27fbf4	0.65618825
16	0x3f9e3adf	1.2361716
17	0x3f926511	1.1437093
18	0x3f579465	0.8421081
19	0x3ea5d8f1	0.32392076
20	0x3f9c522d	1.2212578
21	0x3f3b29f0	0.73110867
22	0x400882ca	2.1329827
23	0x40661eba	3.5956254
24	0x3f965ce9	1.1747104
25	0x3ee82390	0.45339632
26	0x3fe58fba	1.7934487
27	0xc0218461	-2.5237048
28	0x3f5c992a	0.8617121
29	0x4021967e	2.5248103
30	0xc0324daa	-2.7859902
31	0xbceaeeb8	-0.028678283
32	0x3fb56034	1.4169984
33	0xc00d76ec	-2.2103834
34	0x3f518131	0.81837755
35	0x3ff2bde8	1.8964205
36	0x3ef12963	0.47101888
37	0x3fe94691	1.822466
38	0x402618da	2.5952668
39	0xbf69eded	-0.9137867
40	0xbf87c0af	-1.0605677
41	0x3fc03318	1.5015593
42	0xbf5e11af	-0.86745733
43	0xbfb47eb5	-1.4101168
44	0xbf87d2ae	-1.0611169
45	0xbfcbccd4	-1.5921884
46	0xbf67bfb8	-0.90526915
47	0xbf4e0395	-0.80474216
48	0xbf91e753	-1.139872
49	0x3f94ef21	1.1635476
50	0xbe292516	-0.16518053
51	0xbfb65e1c	-1.424747
52	0xbf59087f	-0.8477859
53	0xbe435a12	-0.19077328
54	0xbee5ff8d	-0.44921532
55	0x408e56c4	4.4480915
56	0x40804568	4.0084724
57	0x3ef9ef4c	0.48815382
58	0x40589c88	3.384554
59	0x4055446c	3.3323011
60	0xbe84973d	-0.25896636
61	0x402b3a47	2.675432
62	0x40224a4f	2.5357854
63	0xbec4a0c4	-0.38403904
64	0x40036543	2.0530555
65	0x3fb82188	1.4385233
66	0x3fcc4c0b	1.5960706
67	0x4027e257	2.6231897
68	0x3fd01f62	1.6259577
69	0x3fcc41bf	1.5957564
70	0x400845e9	2.129267
71	0x3f0216b7	0.5081591
72	0x3f766ef3	0.96263045
73	0x3f5487d2	0.83019745
74	0x3fc75efa	1.557586
75	0xbfb9630b	-1.448335
76	0xbfa6bd91	-1.3026601
77	0xbfd50031	-1.6640683
78	0xbfd00084	-1.6250157
79	0xc04d3ddf	-3.2069013
80	0xc0477dd9	-3.1170561
81	0xbf1f0bdb	-0.62127465
82	0xbf1b593f	-0.60683054
83	0xbf5fd93a	-0.87440836
84	0xbe4f46bb	-0.20241825
85	0x3d870288	0.0659228
86	0x3f5f274b	0.8716933
87	0x3f9434b2	1.1578581
88	0x3fffc709	1.9982616
89	0x4021f4d5	2.5305684
90	0x3f87c4a8	1.060689
91	0x3f221e03	0.63327044
92	0x3f9d01c6	1.2266166
93	0x400f7690	2.2416115
94	0x3f3f709e	0.74781215
95	0x3f7055ab	0.9388072
96	0x3fd34265	1.6504637
97	0x3ef5ca4c	0.48005903
98	0x3f0661c1	0.5249291
99	0xbe528f87	-0.20562564
100	0xbf00eabb	-0.5035817
101	0x3f507418	0.81427145
102	0x3f1d96eb	0.6155841
103	0xbed12982	-0.4085198
104	0x3f1b58f3	0.606826
105	0x3d9c2a98	0.076253116
106	0x3ec56115	0.3855063
107	0x3f204ff7	0.62622017
108	0x3efb57df	0.49090478
109	0x3f885ef4	1.0653977
110	0xbea719c2	-0.3263684
111	0x3d1463c7	0.036227968
112	0x3fb18f7d	1.3871914
113	0x3f3a4132	0.7275573
114	0x40333728	2.8002415
115	0x40503c8a	3.253695
116	0x3fe1e63d	1.7648388
117	0xbf8b4e05	-1.0883185
118	0xc00129d2	-2.0181775
119	0xbfebfc2c	-1.8436332
120	0x3fb48ebc	1.4106059
121	0x3ef70b69	0.48250893
122	0xbf716593	-0.94295615
123	0xbe74870f	-0.23879646
124	0xbfe03b5c	-1.7518115
125	0xc02df2cb	-2.717944
126	0xbf5f9fc6	-0.8735317
127	0x3f9c895f	1.2229422
128	0x3e85d904	0.26142132
129	0xbf631a5f	-0.88712114
130	0x3f252cce	0.6452149
131	0x3f8f9dc5	1.1220022
132	0xbf43c721	-0.7647572
133	0x3f315ef4	0.6928551
134	0x403c4564	2.9417353
135	0x3f0d1cd1	0.55122095
136	0x3f4eee00	0.8083191
137	0xbe8bc852	-0.2730127
138	0xbf44920f	-0.7678537
139	0x3f813eea	1.0097325
140	0xbefe1812	-0.4962774
141	0xbee91889	-0.4552653
142	0x3f91d816	1.1394069
143	0x3f096536	0.5367006
144	0x3f2266c0	0.63438034
145	0x3f74bcbe	0.956005
146	0x3f986548	1.1905909
147	0x3ef11fc4	0.47094548
148	0x3f2d7acd	0.67765504
149	0x3fcad190	1.5845203
150	0x3f934e99	1.1508361
151	0x400c389f	2.1909559
152	0x3fbfb93c	1.4978404
153	0xbf8ee1ad	-1.1162621
154	0xbfba5fd8	-1.4560499
155	0xbf1d93f9	-0.61553913
156	0xbf819b19	-1.0125457
157	0xbf9fbd76	-1.2479694
158	0xbdb34d3e	-0.08754967
159	0xbf8c321b	-1.0952791
160	0xbfcf672a	-1.6203358
161	0xbf849242	-1.0357134
162	0x3e998bbd	0.29989424
163	0x3c5a69c8	0.013330884
164	0x3f3dfb02	0.7421113
165	0x3e576916	0.21036181
166	0xbdd6bf2c	-0.10485682
167	0xbede0ebe	-0.43370622
168	0xbf37db46	-0.7181896
169	0x3faeb240	1.3648148
170	0x3f7be6a6	0.98398817
171	0x3f0e4a43	0.55582064
172	0x3fd8e9b1	1.6946317
173	0xbea71808	-0.32635522
174	0x3fa2f228	1.273015
175	0x3ff0cb9f	1.881214
176	0xbf36be62	-0.7138425
177	0x3fcd795b	1.605266
178	0x3fda40ee	1.7051065
179	0xbf600fca	-0.8752409
180	0xbecdfca1	-0.40231803
181	0xbfba7d93	-1.4569572
182	0xbf058a98	-0.521646
183	0xbf269b8e	-0.6508111
184	0xbf3d94a8	-0.74054956
185	0x3efaa1e8	0.4895165
186	0xc0043676	-2.065824
187	0xbfff5947	-1.994912
188	0xbfaa3e6b	-1.3300298
189	0x400e1bd7	2.2204492
190	0x3fdf9c1b	1.7469515
191	0x3fd55e80	1.6669464
192	0x3fa183cb	1.2618345
193	0x3f7b0d3a	0.9806706
194	0x3f246cfb	0.6422879
195	0x40280fa5	2.6259549
196	0x401e9e82	2.4784245
197	0x40220e52	2.532124
198	0xbfaf2e17	-1.368594
199	0xc013ce4f	-2.309467
200	0xc017fca5	-2.3747952
201	0xbfaf5087	-1.369645
202	0xc0047eb1	-2.0702326
203	0xc0129ef6	-2.2909522
204	0xbfb99c10	-1.4500751
205	0xc01187ca	-2.273913
206	0xc051225a	-3.2677217
207	0x3f067f04	0.5253756
208	0xbfc63c15	-1.5487086
209	0xc00fd65a	-2.247458
210	0x3f4325f2	0.76229775
211	0xbf548d0a	-0.8302771
212	0xbf8e1db6	-1.1102817
213	0xbf5790dc	-0.8420541
214	0xbfb7953e	-1.434242
215	0xc0275437	-2.614515
216	0x3fe99747	1.8249291
217	0x4024e264	2.5763178
218	0x3faf50bb	1.3696512
219	0x3fef7e09	1.8710338
220	0x3efee591	0.4978452
221	0xbe95442f	-0.29153582
222	0x3f86bffd	1.052734
223	0xbf051de3	-0.5199873
224	0xbf7a1b30	-0.97697735
225	0x400c899c	2.195899
226	0x3f9211e1	1.1411706
227	0x3f443a62	0.76651585
228	0x40228bbc	2.5397787
229	0x4027bd56	2.6209311
230	0x3f80728e	1.0034959
231	0x40206a18	2.5064754
232	0x406bf8ed	3.6870682
233	0x3fcc16d8	1.5944471
234	0xc021615c	-2.5215673
235	0xc0460ec2	-3.0946507
236	0xc075a584	-3.8382273
237	0xc071aea8	-3.7762852
238	0xc00fe0be	-2.2480922
239	0xc033fdfa	-2.8123765
240	0xc06415e0	-3.5638351
241	0xc01919ed	-2.3922074
242	0xc0591197	-3.3916986
243	0xbf838770	-1.0275707
244	0xbf9ab949	-1.2087795
245	0x3dd6c0b0	0.10485971
246	0xc01a7b3f	-2.4137723
247	0xbf0f94fe	-0.5608672
248	0x3f3c362e	0.7352017
249	0xc00b929d	-2.1808236
250	0xbf832dac	-1.0248313
251	0x3f1b17a7	0.60582966
252	0x3c881f58	0.016616508
253	0xbd4c92a0	-0.04994452
254	0xbe4daf4a	-0.20086399
255	0x3ea31fae	0.31860107

down_path.0.block2.skip1_connection_residual_block.bias f4 [8]
0	0x3ef19fb9	0.4719217
1	0x403ba932	2.9322019
2	0xbfe0c8ab	-1.7561239
3	0x3dcfea32	0.10152091
4	0x3f2f09a7	0.68374103
5	0x4024b401	2.5734866
6	0xbf3de3f4	-0.74175954
7	0xbf971028	-1.1801805
